iris_models_state_dict_0epochs.pth (torch, 2831 bytes, 4 tensors)

l1.input_current.weight f4 [4, 4]
-0.0064837933 0.4645738 -0.712778 -0.63734186 -0.33355343 0.23223108 -0.017158687 0.6866624
-0.07685459 0.2291612 -0.26172417 -0.17023063 -0.82735604 -0.5735531 -0.35699564 0.03208065
00000000: 0076 d4bb 9edc ed3e 9e78 36bf d628 23bf
00000010: 84c7 aabe fccd 6d3e 6090 8cbc 1bc9 2f3f
00000020: f065 9dbd 3ca9 6a3e b600 86be f050 2ebe
00000030: 9bcd 53bf 60d4 12bf 22c8 b6be 0067 033d

l2.input_current.weight f4 [4, 4]
-0.0064837933 0.4645738 -0.712778 -0.63734186 -0.33355343 0.23223108 -0.017158687 0.6866624
-0.07685459 0.2291612 -0.26172417 -0.17023063 -0.82735604 -0.5735531 -0.35699564 0.03208065
00000000: 0076 d4bb 9edc ed3e 9e78 36bf d628 23bf
00000010: 84c7 aabe fccd 6d3e 6090 8cbc 1bc9 2f3f
00000020: f065 9dbd 3ca9 6a3e b600 86be f050 2ebe
00000030: 9bcd 53bf 60d4 12bf 22c8 b6be 0067 033d

l3.input_current.weight f4 [3, 4]
-0.006931424 0.49665022 -0.76199174 -0.68134713 -0.35658365 0.2482655 -0.018343449 0.73407304
-0.08216101 0.24498367 -0.27979493 -0.18198419
00000000: 0021 e3bb f048 fe3e e411 43bf c46c 2ebf
00000010: 2292 b6be 5039 7e3e 0045 96bc 36ec 3b3f
00000020: 0844 a8bd 00dd 7a3e 4841 8fbe 105a 3abe

l4.input_current.weight f4 [3, 4]
-0.006931424 0.49665022 -0.76199174 -0.68134713 -0.35658365 0.2482655 -0.018343449 0.73407304
-0.08216101 0.24498367 -0.27979493 -0.18198419
00000000: 0021 e3bb f048 fe3e e411 43bf c46c 2ebf
00000010: 2292 b6be 5039 7e3e 0045 96bc 36ec 3b3f
00000020: 0844 a8bd 00dd 7a3e 4841 8fbe 105a 3abe
