snn_model/spike_iris_model_key.pth (torch, 2263 bytes, 3 tensors)

l1.input_current.weight f4 [4, 4]
0.44639674 -0.36724845 -0.19313578 0.38348618 -0.83570886 0.4839196 -0.12943684 0.50230384
0.11276204 -0.11426861 0.24282198 0.037220623 0.32188955 -0.33207542 -0.036379587 -0.09528776
00000000: 1d8e e43e fd07 bcbe 63c5 45be 4d58 c43e
00000010: 04f1 55bf 4fc4 f73e 178b 04be fc96 003f
00000020: c9ef e63d a905 eabd 53a6 783e a774 183d
00000030: b5ce a43e ca05 aabe c302 15bd 3b26 c3bd

l2.input_current.weight f4 [4, 4]
0.46853262 -0.35378942 -0.18209429 0.4130976 -0.76999867 0.56154764 -0.13527037 0.48028055
0.08037026 -0.15146053 0.2231379 -0.0014121492 0.27565804 -0.30542693 -0.13476019 -0.1804271
00000000: 82e3 ef3e e323 b5be ed76 3abe 8781 d33e
00000010: a21e 45bf 96c1 0f3f 5184 0abe 55e7 f53e
00000020: 2a99 a43d 7818 1bbe 437e 643e dd17 b9ba
00000030: 0d23 8d3e eb60 9cbe 93fe 09be e2c1 38be

l3.input_current.weight f4 [3, 4]
0.3842636 -0.36831045 -0.30451205 0.31474403 -0.72992796 0.67097425 -0.045994725 0.5843827
-0.027498217 -0.21636349 0.11965045 -0.112702765
00000000: 33be c43e 3093 bcbe 01e9 9bbe 2126 a13e
00000010: 8fdc 3abf f8c4 2b3f f764 3cbd 1b9a 153f
00000020: f143 e1bc 648e 5dbe 4c0b f53d b5d0 e6bd
