snn_model/spike_iris_model_key.pth (torch, 2831 bytes, 4 tensors)

l1.input_current.weight f4 [4, 4]
00000000: 526e 24bb b67a f13e 5ce9 33bf aee2 22bf
00000010: 9bf9 a5be 55dc 743e 61d2 d8bb 6e55 303f
00000020: 4885 a0bd dc47 653e 2eb2 87be 119c 35be
00000030: 6e34 54bf 0e1c 15bf fd48 b9be 3af6 c93c
-0.002509017 0.47163934 -0.70277953 -0.63627136 -0.32416996 0.23912175 -0.006616876 0.68880355
-0.078379214 0.22390693 -0.26503128 -0.17735316 -0.828925 -0.58245933 -0.36188498 0.024653543

l2.input_current.weight f4 [4, 4]
00000000: e827 18bb 41a0 fd3e 2fba 2ebf 25f4 23bf
00000010: 89a9 9fbe 72bc 803e 687a 413b 6998 2f3f
00000020: 1e52 c0bd 9ddc 5f3e 246f 8cbe 016e 2dbe
00000030: 21bb 5bbf 189e 17bf 453b c1be 8653 123d
-0.0023217145 0.49536327 -0.68252844 -0.6404441 -0.31184033 0.25143772 0.0029522423 0.68591934
-0.093906626 0.21861501 -0.27428544 -0.16936494 -0.8583241 -0.59225607 -0.37740532 0.035724185

l3.input_current.weight f4 [3, 4]
00000000: 0c15 c43b 35ad e33e e97c 4dbf 3936 2cbf
00000010: 4aed acbe f016 8a3e 4c19 c438 c43b 3a3f
00000020: 97eb 83bd 6191 893e 6f56 84be 32d0 30be
0.0059839543 0.44468084 -0.8026872 -0.6727024 -0.33774787 0.26970625 9.35072e-05 0.72747445
-0.064414196 0.26868728 -0.25847194 -0.1726692

l4.input_current.weight f4 [3, 4]
00000000: 0021 e3bb f048 fe3e e411 43bf c46c 2ebf
00000010: 2292 b6be 5039 7e3e 0045 96bc 36ec 3b3f
00000020: 0844 a8bd 00dd 7a3e 4841 8fbe 105a 3abe
-0.006931424 0.49665022 -0.76199174 -0.68134713 -0.35658365 0.2482655 -0.018343449 0.73407304
-0.08216101 0.24498367 -0.27979493 -0.18198419
