snn_model/spike_iris_model.pth (torch, 2263 bytes, 3 tensors)

l1.input_current.weight f4 [4, 4]
-0.4844609 0.3006075 0.5904366 -0.60746294 -0.72220767 -0.8302672 -0.87945825 0.6136265
-0.23349105 -0.0007307672 -0.35862508 -0.30384758 -0.79922324 0.478068 -0.63261575 -0.098194905
00000000: 420b f8be 3ae9 993e da26 173f b182 1bbf
00000010: 9ae2 38bf 648c 54bf 2d24 61bf a016 1d3f
00000020: 4718 6fbe f590 3fba b59d b7be e991 9bbe
00000030: e599 4cbf 54c5 f43e 1bf3 21bf 691a c9bd

l2.input_current.weight f4 [4, 4]
-0.62585837 -0.69644046 -0.031841755 -0.8206769 0.11084871 0.8366317 0.5106508 -0.64787424
-0.2735008 0.3179867 0.43174845 0.20431025 -0.008271967 0.42058 -0.16439992 -0.51588005
00000000: 4138 20bf ec49 32bf 806c 02bd e217 52bf
00000010: a604 e33d 7f2d 563f 03ba 023f 16db 25bf
00000020: 4c08 8cbe 27cf a23e 220e dd3e b536 513e
00000030: 2587 07bc 4356 d73e 7458 28be b710 04bf

l3.input_current.weight f4 [3, 4]
0.5303217 -0.37960273 -0.1085852 -0.26748988 -0.31678587 -0.8402312 0.8971404 -0.5232163
0.10986483 -0.83778614 -0.4231317 -0.6729171
00000000: 2ac3 073f 4a5b c2be eb61 debd 6ff4 88be
00000010: c231 a2be 6419 57bf feaa 653f 81f1 05bf
00000020: d000 e13d 2779 56bf b8a4 d8be 4c44 2cbf
