snn_model/spike_iris_model_key.pth (torch, 2831 bytes, 4 tensors)

l1.input_current.weight f4 [4, 4]
0	0x3ee47866	0.44623107
1	0xbec3b596	-0.38224477
2	0xbe2beb14	-0.16788894
3	0x3ed01eda	0.40648538
4	0xbf50b80b	-0.8153083
5	0x3f04f575	0.5193704
6	0xbe367074	-0.17816335
7	0x3ee1945e	0.44058508
8	0x3df69038	0.12039226
9	0xbdd92b60	-0.10603976
10	0x3e75f76c	0.24020165
11	0x3d2efde0	0.042722583
12	0x3ea1f1aa	0.31629688
13	0xbeaccb9e	-0.33749098
14	0xbd814ff8	-0.06314081
15	0xbd9faca0	-0.077965975

l2.input_current.weight f4 [4, 4]
0	0x3ee47866	0.44623107
1	0xbec3b596	-0.38224477
2	0xbe2beb14	-0.16788894
3	0x3ed01eda	0.40648538
4	0xbf50b80b	-0.8153083
5	0x3f04f575	0.5193704
6	0xbe367074	-0.17816335
7	0x3ee1945e	0.44058508
8	0x3df69038	0.12039226
9	0xbdd92b60	-0.10603976
10	0x3e75f76c	0.24020165
11	0x3d2efde0	0.042722583
12	0x3ea1f1aa	0.31629688
13	0xbeaccb9e	-0.33749098
14	0xbd814ff8	-0.06314081
15	0xbd9faca0	-0.077965975

l3.input_current.weight f4 [3, 4]
0	0x3ef43eb8	0.477041
1	0xbed138da	-0.40863687
2	0xbe37c9d4	-0.17948085
3	0x3ede7d80	0.43455124
4	0xbf5f2142	-0.8716012
5	0x3f0e2392	0.55523026
6	0xbe430928	-0.19046462
7	0x3ef1279c	0.47100532
8	0x3e03cb28	0.12870467
9	0xbde829f0	-0.11336124
10	0x3e837980	0.25678635
11	0x3d3b12f0	0.045672357

l4.input_current.weight f4 [3, 4]
0	0x3ef3e630	0.47636557
1	0xbed18f0a	-0.40929443
2	0xbe3879bd	-0.1801519
3	0x3edea542	0.43485457
4	0xbf5f2656	-0.8716787
5	0x3f0e14cf	0.555005
6	0xbe434c06	-0.1907197
7	0x3ef12168	0.470958
8	0x3e047e2f	0.1293876
9	0xbde6ccd8	-0.112695396
10	0x3e83d87d	0.25751105
11	0x3d3dc2a4	0.046328202
